PretrainedIntuitionNet.pt (torch, 910374 bytes, 30 tensors)

fc1.weight f4 [128, 41]
00000000: b119 87be 64c8 adbd 0083 98be 8df9 42be
00000010: ee02 6fbe 6d16 d3bd 829d ab3e 1769 05be
00000020: 420f c1bd be12 343e b52b 933e b9d9 e7bc
00000030: 891b fbbd 1d24 d63d bd6d 613e c5e8 89be
00000040: edc0 febd 45b6 42bb dad5 31bd 5775 a3be
00000050: f5cf 10be 5446 13bf 2801 783e 10f9 ad3d
00000060: 0bb9 843e 2997 843d d1e3 7ebe cadf 1e3c
00000070: 6f9d 023f 594d 96bd b3e3 04bd 7073 953e
00000080: b14c 15be fadb 6abf 25b6 4fbe b6db bd3d
00000090: d4ef 513d 2736 a8be 3564 c6be 77fa 71bd
000000a0: 3350 bbbe fc52 8abc 8a74 7c3e b091 dc3d
000000b0: ca15 333e 3ab3 c43d 89f4 f93b 8832 923e
000000c0: 669a 84be cbd4 a03e 740b 08be 8ad4 8cbd
000000d0: c8fc bcbc 2038 f2bd 0ec2 b5be 21a2 f7be
000000e0: d67f f8bd ec84 31be 29b9 9f3d 3e63 a43e
000000f0: 1efe f33e 20b3 0b3e d5c5 903c 84cc d3bd
00000100: 6a03 803e 5a57 39be 0f04 60bd 6375 1f3d
00000110: 1a6b 9f3c cec4 783d 332d 34bd 252a 103e
00000120: 9beb be3a 6e02 9b3d ae5b 393e 8f30 853e
00000130: 3392 fabd 66f7 3f3d a01b 983d 3556 073f
00000140: 0539 10bd 5fd6 edbe b2a8 06bc 0406 62be
00000150: 4c1f c73d e685 03bd 7b20 ee3d aaed 953e
00000160: 9fc5 733e d399 fd3c 2fa5 493e 3953 df3d
00000170: 57af 2c3d 0cf6 5a3e 065a 873e 7df1 be3d
00000180: 95b9 373e 8067 153f c86c 2a3f ccd3 bcbd
00000190: 5814 c7be 65b8 5d3e be64 b4bd 15fe 2e3e
000001a0: 1f86 a03e 9bc9 ef3c abbd 823e 3db9 d2be
000001b0: 0f6c 923e f052 84bd 2846 95bd a9cf fc3d
000001c0: ed38 79bc 0c18 ad3d 06ab 3c3d 2022 8c3d
000001d0: b753 8d3d 7ac9 c73c 962d 793e 1564 e03e
000001e0: b65b 40be 4228 d63e 73f7 0c3e ae4a 453d
000001f0: 582c ecbc f75e ba3c 5b6a b1bd b0e5 b43d
00000200: 2971 e8bd 946b 1a3d 8945 8a3e 219e 4b3c
00000210: b9fd 69bc aa0a 8ebe f8a8 a0bd 1113 b6bd
00000220: b6a9 e63d 3f9c c83e f4c7 44be d63b 7bbd
00000230: bd09 533e b2e8 cb3d e1d0 9c3e 2462 5b3e
00000240: 4149 09bf 5ec8 78bd 61e2 ec3e 6b02 803e
00000250: 975a 7f3e 20e7 cdbd b6a9 dabe b8de 2b3e
00000260: f80d db3d f652 3cbc e801 5d3e 0342 27bf
00000270: 976c 0d3f a2d3 e5be d52f d23e 58ad d1bd
00000280: e639 cfbe 1471 15be 9199 87be c12d 8f3d
00000290: 0896 9cbd 3cfd 84be a465 94be 9c3f 95bd
000002a0: 53cc babd 2ba7 01bd f34b aebd 669e b53d
000002b0: 137f 48be 0ec6 a1be 9dbc 373e 4d3d 8dbe
000002c0: 8af6 d83c 5a04 9b3e d86c 49be efb8 3b3e
000002d0: cae9 243e 0cbc 42be f79e 373e 9b21 45be
000002e0: 7990 d4be 093a 0fbe b5f1 253e e8f4 c6be
000002f0: 4660 ec3c 464b 8d3e 907a 58bd a39d 62be
00000300: 29f5 6bbd 507e 663e e4bd d43e 9dd9 6abe
00000310: 1750 443f 4758 993e bba5 213d 95b4 8a3e
00000320: c143 99bd b14f 9f3c a93b 66be e866 b5bd
00000330: 6990 44be b7df 9dbe 9854 d63d 7702 83bd
00000340: 70dc 2a3e 0e8f 113e dfda 633f 80da 6d3c
00000350: 6f1f 523e 1afd f33d 687f 8c3e a374 1b3f
00000360: 4c24 db3e eae6 e43c 6e4e 273e 69b8 e33d
00000370: 786d 93be fdc8 9c3e d9fd 9c3e 8b9e 04be
00000380: 487b c03d 3a9e aabe 5a22 8abe 5bb9 0d3d
00000390: 563e dbbe 377f a93d 48e1 123d a85d 653d
000003a0: 7ae8 473d ee5c 173d b80a 5b3d 3490 3bbd
000003b0: ae3b 623e 920c 34bd dbb4 943e 3975 ba3e
000003c0: ab6c c83d 2a66 9b3e 001b 573e 3527 eabd
000003d0: 65fb 623e b90b 8c3e be70 153d 4cd0 833e
000003e0: a971 dc3d ad46 7c3e 0ded adbe aa91 1e3e
000003f0: d963 0f3f 0c83 71bd 3cf2 36bd d54f 9c3e
-0.26386788 -0.08485487 -0.29787445 -0.19040509 -0.23340961 -0.10307012 0.33518606 -0.1302837
-0.09426738 0.17585275 0.28744283 -0.02830206 -0.12261111 0.10456107 0.22014518 -0.26935402
-0.124391414 -0.0029710692 -0.043416835 -0.3192546 -0.1414183 -0.5752919 0.24219191 0.084947705
0.25922427 0.06474144 -0.24891593 0.00969691 0.51021475 -0.07338972 -0.032443713 0.29189634
-0.14580037 -0.9174191 -0.20284326 0.09270422 0.05125411 -0.32853815 -0.38748327 -0.059076753
-0.36584625 -0.016885273 0.24653831 0.10769975 0.1748878 0.09604497 0.007628028 0.28554177
-0.25899047 0.31412348 -0.13285619 -0.06876476 -0.023069754 -0.11827111 -0.35499614 -0.48365882
-0.12133758 -0.17335862 0.07798988 0.32106966 0.47654814 0.1364255 0.017672459 -0.10341743
0.25002605 -0.18099728 -0.05469137 0.038930308 0.01946025 0.060734563 -0.043988418 0.14078577
0.0014566066 0.07568823 0.1810138 0.2601361 -0.122349165 0.046866797 0.07427144 0.52865916
-0.035210628 -0.46452615 -0.008218931 -0.22072607 0.09722766 -0.032110117 0.11627289 0.29282886
0.23805855 0.030957138 0.19691919 0.10904545 0.042159405 0.21382922 0.2643587 0.09323404
0.17941888 0.58361053 0.66572237 -0.092200845 -0.3888271 0.21652372 -0.088082775 0.17089112
0.31352326 0.029270938 0.2553533 -0.4115695 0.28598067 -0.064611316 -0.07288772 0.123442955
-0.015211326 0.08451852 0.04606154 0.06842446 0.06900733 0.024388064 0.24333796 0.43826357
-0.18784985 0.4182759 0.1376627 0.048166923 -0.028829738 0.02275036 -0.08662864 0.08832872
-0.113497086 0.03770025 0.27006176 0.012427838 -0.014281684 -0.2774251 -0.07844728 -0.088903554
0.112628385 0.39181706 -0.19216901 -0.06133636 0.20609184 0.099564925 0.30628112 0.21424156
-0.536274 -0.06073796 0.46266463 0.25001845 0.24936901 -0.10053849 -0.42707604 0.16784179
0.10696024 -0.011494389 0.21582758 -0.653351 0.5524382 -0.44888026 0.41052118 -0.10238141
-0.4047386 -0.14593917 -0.2648435 0.06991149 -0.07645804 -0.25974452 -0.28983796 -0.07287523
-0.09121003 -0.031653564 -0.0851058 0.08868103 -0.19579725 -0.31596416 0.17943044 -0.2758583
0.026484746 0.30276757 -0.19670427 0.18332265 0.16104808 -0.19017047 0.17931734 -0.192511
-0.41516474 -0.13986982 0.16205485 -0.38858724 0.0288545 0.27596492 -0.05285126 -0.22130446
-0.05760685 0.22509122 0.41551125 -0.22934575 0.7668471 0.29950163 0.039464694 0.27090898
-0.07483626 0.01944718 -0.22483696 -0.088575184 -0.19195713 -0.30834743 0.10465354 -0.063969545
0.16685653 0.14214727 0.89005846 0.0145174265 0.20519803 0.1191351 0.27440953 0.6072485
0.4280113 0.02794214 0.16338512 0.11119158 -0.28794456 0.30622092 0.3066242 -0.12951104
0.09398514 -0.33323842 -0.26979333 0.034600597 -0.42820996 0.082762174 0.035859376 0.05599752
0.04880569 0.03695386 0.05347702 -0.04579182 0.22093078 -0.0439573 0.29044232 0.3641756
0.09786352 0.30351382 0.21006393 -0.114332594 0.22166212 0.27352694 0.036484472 0.25744855
0.107638665 0.24636336 -0.33969918 0.15485254 0.5601173 -0.058962867 -0.044664606 0.30529657

fc1.bias f4 [128]
00000000: 7d40 cdbd f608 5a3e 45ee 993d a0f2 0cbd
00000010: 2cd9 0f3e 44ed 22bc 32df 8e3d 7f6e 083e
00000020: ef3e 333e 325e 443e b9dd c33c c0c2 83bd
00000030: 476c c7bd 1d8f 443e 9ea1 783e b019 a63d
00000040: d7f9 85bd 500c 6ebc 6050 083e cdb9 273e
00000050: d36b e33d fe32 ac3d 1b01 3e3e d0f0 d03d
00000060: 743f 8c3d 8664 273e e1e0 693c 3d37 53bc
00000070: 624b 80bd 3ec0 593d 0454 e83d ee24 6f3e
00000080: d782 acbd 55f7 233e 26ca 02be 4b8c dc3d
00000090: 052a 46bc 16a7 333d cad8 973a a6cd 8a3d
000000a0: cd1c cfbd ca2b 313e 0345 f73d 6d2e af3d
000000b0: 5c96 7fbc aea6 e7bd b5c0 ff3c d755 033d
000000c0: bbb6 703d af36 3c3d 3eed ab3d 663d 443e
000000d0: 0cbd af3d 3bb1 63bc 5e20 8ebd ebf7 9e3e
000000e0: 0428 903d a368 d93c 5df4 273d 84df 76bd
000000f0: e26c 8cbc b052 163e 9843 43bd 4f40 473e
00000100: 703b 1a3e 4597 fc3d 3c7e ddbd 4465 f43d
00000110: 76c3 e83d 2813 8abd 4121 fd3c ad2b a03d
00000120: c6c1 cfbd 7881 ce3d aaaf c73d 925f 52be
00000130: 7d13 dcbc 4979 6c3d cb7d b73d 8334 aa3d
00000140: 841a a93c 2cb5 083d c793 833e 680e a73d
00000150: 4c73 b33c 52ae f83d 583e 0bbd 7581 26be
00000160: 0a1c 373b c7bf d5bc efa7 ecbc 8b17 6dbc
00000170: 23b2 dcbc 5f86 e53d 4d37 053e 3970 9ebc
00000180: 2288 413e b2d8 f8bc 9f85 a23d dd8a 38bd
00000190: bc7a 98bd beca b6bd 1727 173c 7418 6ebd
000001a0: c621 89bd fe7b 4abd 5cbe 0f3d 4a6e a0bc
000001b0: 084c 8c3e f674 343e f5cb 7d3e 2cc0 d83d
000001c0: 410b 1bbe 1c03 5b3e d548 903c e5ba 3a3c
000001d0: 1322 903c a01b c0bd 5a23 f33c a8c4 993d
000001e0: 8c54 b7bc bd19 573a 687f 3dbd bafa 823d
000001f0: 9efe c8bd 6404 883d 2729 3c3d 07bd de3d
-0.10022066 0.21292481 0.075161494 -0.034411073 0.14047688 -0.009944264 0.06976165 0.13323401
0.17504476 0.19176558 0.023909437 -0.0643363 -0.09737449 0.19195218 0.24280402 0.08110368
-0.06541794 -0.014529303 0.1331191 0.16379471 0.1110455 0.084081635 0.18555109 0.10202181
0.0684804 0.1634694 0.014274807 -0.012891588 -0.06264378 0.053161852 0.1134415 0.23353931
-0.08423393 0.16012318 -0.12772426 0.10768946 -0.012094979 0.043860517 0.0011584994 0.067775056
-0.10112915 0.1730186 0.1207371 0.08553777 -0.015599813 -0.113110885 0.03121982 0.032064285
0.058768015 0.045950588 0.0839486 0.19164047 0.0858098 -0.0138972355 -0.06939767 0.3104852
0.070388824 0.026539152 0.041004527 -0.060271755 -0.017141763 0.1467998 -0.047671884 0.19458126
0.15061736 0.1233354 -0.10815093 0.119333774 0.11365406 -0.06741935 0.030899646 0.078208305
-0.10144381 0.10083288 0.09750302 -0.2054427 -0.026864761 0.057732854 0.0895954 0.08310797
0.020642526 0.033375904 0.25698683 0.08157045 0.021905564 0.12142624 -0.033995003 -0.16260321
0.0027940297 -0.026092423 -0.02888867 -0.014470945 -0.026940411 0.1120727 0.13009377 -0.019340621
0.18899587 -0.030376766 0.079356425 -0.045054305 -0.07445285 -0.08925389 0.009225628 -0.05812879
-0.06695895 -0.049434654 0.03509365 -0.01958384 0.27401757 0.17622742 0.24784835 0.10583529
-0.15141012 0.21387905 0.017612854 0.011397098 0.017594373 -0.09380269 0.029679943 0.07508212
-0.022379182 0.00082054344 -0.046264082 0.063954785 -0.098141894 0.066414624 0.045937683 0.10875898

res_block.linear1.weight f4 [128, 128]
00000000: fb40 59be 3bce 2cbb de6d b33d 6b94 a03e
00000010: a9de b63b da2b 9e3d 475b 6d3e 1c45 b5be
00000020: a09e 36be 65e6 50bd 1f44 ce3d 470d e23c
00000030: 7e87 4e3b e345 1a3e 8ca1 8f3d ac32 cf3d
00000040: 6590 7fbe 8851 8b3d 8dec fc3d 2482 e5bb
00000050: 5392 213e 8d19 b1be 9d69 e23c 644b e3bd
00000060: 7ec7 c33e 93de c83d c6d4 08bd 7817 62ba
00000070: 1ae8 1bbe 8928 163e bbb2 533e a0bf 363e
00000080: 4682 2a3c 7821 053d 66ae 083d 1215 8bbd
00000090: e590 a6bd de50 843b 44c3 043e 533f 523e
000000a0: b415 c4be db19 e13d 3d6c 86bd dede 34bd
000000b0: 607c e73c 1c23 01be d0f2 e1bb 78f5 083e
000000c0: f6cc febd 62fe 473e a925 02be f0c8 163d
000000d0: e416 50bd d413 8d3e ce4b 713d 83d6 c63d
000000e0: 42e9 a93d e6f7 143e bb6c 9b3e 1892 103d
000000f0: bf0f 263c dbec 4b3e e56a 3b3d 7023 e2bd
00000100: 4e54 3d3d 4656 bbbc a721 26be 8da0 053e
00000110: 72df 913e 59b6 14bd b45e c6bc 2164 ddbd
00000120: ccc4 f6bd 38eb 4abd b825 f13d 493f 313c
00000130: 1a5d 23be 47f3 19be d0cc 453e dad8 533c
00000140: 0856 1ebd 240e d0bd f226 e93d 0bc0 3f3e
00000150: efa7 5e3c 63e3 ffbd 046d b7bd 4226 2fbe
00000160: ded3 cebd 160d 8abc 2435 26be 79f8 403e
00000170: e3b1 c13b 6236 213d 3d0b 953d 6f6d 193e
00000180: 345f 1d3d 0ef4 5fbe 4bf4 063d b4ac 103d
00000190: 3414 0c3e e486 2bbd c13b 703d 7606 40be
000001a0: ce7c 05bd 2090 ea3d ab43 383e 5cd2 a13c
000001b0: bf74 f0ba 1665 fb3c cef8 7cbd 1fe5 223e
000001c0: 0b5c 833c 6493 85be 3099 c13d 8ca1 323e
000001d0: 5051 45bd 5232 d8bd 2ca8 923c acf6 833d
000001e0: abea a23d 26d2 99bd fd64 1d3a c413 b5bd
000001f0: cf0a aabd 8490 54be a6f6 1bbe 3cef 883d
00000200: aca5 22bc c246 86be 83c7 a33e b85e 9f3d
00000210: 1372 eb3c 3ea6 00be f1e3 3c3d 2e5a b1ba
00000220: 83f3 9e3d e1e4 593e 4888 0ebd f9bf a73d
00000230: 86a9 b9bd 258f af3d 4eca bb3c 74c1 793e
00000240: c6ea 9a3d fdfe 463d e467 023e 0b9e 373e
00000250: 63c1 293c db1f 9bbc b47a 5d3d 4610 f13d
00000260: 2484 cb3d 083c 37be eb3d 11be 6101 a0bd
00000270: 8376 6b3e ca50 07be c124 403e aa3a 47be
00000280: 6ab7 3ebe 057e 24bd b393 663e c758 86bd
00000290: 506d 2f3e c59e 883d a3a3 723e 1b73 283d
000002a0: d23c 3dbd e0fa 333e 5016 ffbd 9912 703e
000002b0: edca 0abd 2cbb f63d e781 073e fe5e 49bd
000002c0: 7859 e73d ab66 d7bc 2e8a 993d 68cd 91bd
000002d0: 1ec8 4fbd 5f6f 263e 146b 44bd a437 f03d
000002e0: 2c97 98bd f93d b0bc 06cb 00be 8b03 c2bc
000002f0: 6765 223e 3add 863c 2a2a cfbd 92b6 eabd
00000300: 7296 ecbd 9729 733b d9c9 083e 44f0 373c
00000310: 4cf2 a43d 4f86 bf3c 0095 02be 3cf3 a6bd
00000320: f7b5 883d 969a 543e f929 8b3d ad2a e0b9
00000330: 604a dc3d 8318 163e f6cc fb3d 0d5b a23d
00000340: 5e16 54be 03ea 7abe 7d67 933c 3fe7 b93d
00000350: 7d1f adbd 708c 973d 8831 e5ba b0f2 f1b8
00000360: e32a 3cbe 5a3b debd b01e 423e 401f 21be
00000370: 571e 8f3e 1ab7 e2bd b944 dd3c 0356 28be
00000380: df40 253d 831d e9bd e7da 673e 5cb5 613e
00000390: e210 603d 100c 353e 17bd 7b3e 821e 0ebd
000003a0: ea74 943d e888 6b3c db56 23be 18b0 1e3e
000003b0: 5341 d2bd 3e7a 81be 79ee e1bd 4f11 bebd
000003c0: 2648 453e 3a1a 313e fc37 fabc c0a8 563d
000003d0: a264 b5bd 7fa8 943d eaa9 a53e 5985 fcbd
000003e0: 44ab 003e 4b7e 003e c9a4 50bd fdf4 453d
000003f0: c7a3 cdbd a48b 27be d5e1 4b3d d15e 86bd
-0.21216194 -0.002636804 0.0876119 0.31363234 0.0055807424 0.07723208 0.23179351 -0.3540429
-0.17833948 -0.05100097 0.10071587 0.027594222 0.0031513865 0.15065722 0.070132345 0.10117087
-0.24957426 0.0680266 0.12349806 -0.0070040394 0.15778475 -0.34589806 0.027638251 -0.11098364
0.38238138 0.09808078 -0.03340604 -0.0008624713 -0.15225258 0.146639 0.20673649 0.17846537
0.010407036 0.03250262 0.033369444 -0.06791128 -0.08133105 0.0040379604 0.12965113 0.20531969
-0.38297808 0.1099126 -0.065636136 -0.044157855 0.028257549 -0.1261105 -0.0068954006 0.13374889
-0.12441437 0.19530633 -0.12709679 0.036812723 -0.05080308 0.2755419 0.058910184 0.097088836
0.082964435 0.14547691 0.30356392 0.035295576 0.01013559 0.19914572 0.04575624 -0.110419154
0.046222977 -0.022868287 -0.16223775 0.13049527 0.28490788 -0.036306713 -0.02421508 -0.10810114
-0.12049255 -0.04954073 0.117747724 0.010818311 -0.15953484 -0.15034209 0.19316411 0.012930119
-0.038656265 -0.10158947 0.11384381 0.18725602 0.013589843 -0.124945424 -0.0895634 -0.17104438
-0.10099004 -0.016851943 -0.16231209 0.18844785 0.0059110983 0.039358504 0.07277534 0.14983152
0.03842087 -0.21870443 0.03294782 0.035320953 0.13679582 -0.04187669 0.058650736 -0.18752465
-0.032589726 0.11453271 0.17994563 0.019753627 -0.001834534 0.03068785 -0.061760716 0.15907715
0.0160351 -0.26089013 0.09453046 0.17444438 -0.04817325 -0.10556473 0.017902456 0.06443533
0.079549156 -0.07510786 0.0006004123 -0.088416606 -0.08302843 -0.20758253 -0.15230808 0.06686255
-0.009927195 -0.2622586 0.31988153 0.07781738 0.028740918 -0.12563416 0.04611582 -0.0013530904
0.0776129 0.21278717 -0.034797937 0.08190913 -0.09065537 0.085722245 0.022923615 0.24390203
0.07564311 0.04858302 0.12734944 0.17931382 0.010361048 -0.018936088 0.054072097 0.11770682
0.09937313 -0.17893994 -0.14183776 -0.07812763 0.22994427 -0.13214412 0.1876402 -0.19455972
-0.18624654 -0.040159244 0.2251728 -0.06559902 0.17131543 0.06670908 0.23695235 0.041125398
-0.04620058 0.1757617 -0.12455428 0.23444594 -0.03388493 0.12047419 0.13233148 -0.049162857
0.11296362 -0.026294073 0.07497059 -0.07119256 -0.050727956 0.16253422 -0.04795368 0.117293626
-0.07450709 -0.021513926 -0.12577447 -0.02368333 0.15858994 0.01646291 -0.10115464 -0.11460604
-0.11552133 0.0037103647 0.13358249 0.011226717 0.08054027 0.023379473 -0.12752151 -0.08151862
0.06675332 0.20762095 0.06795115 -0.00042756405 0.107563734 0.14657788 0.122949526 0.07927523
-0.20711657 -0.24503331 0.017993683 0.0907731 -0.084532715 0.07399833 -0.0017486075 -0.000115369796
-0.18375735 -0.10851164 0.18957019 -0.15734577 0.27952835 -0.1107008 0.027010309 -0.16439061
0.04034507 -0.11382582 0.22642098 0.2204184 0.0547036 0.17680383 0.24583851 -0.034697063
0.07248862 0.014375903 -0.15951101 0.15496862 -0.10266366 -0.25288576 -0.11031813 -0.09280645
0.19265804 0.17295161 -0.030544274 0.052407026 -0.08857085 0.072587006 0.32356197 -0.123301215
0.12565333 0.12548177 -0.0509384 0.048329342 -0.10041004 -0.16361862 0.049775917 -0.065610535

res_block.linear1.bias f4 [128]
00000000: 595d a2bc ab6b 53bd bb56 223d c53f 803c
00000010: 1006 f53d 8060 e8bc 19b2 093d 66a1 5dbd
00000020: f971 6bbd 67a6 3fbc 8c4f 1c3d c1f7 3b3b
00000030: 87f5 913d 3c87 8abd b7ae 74bb 49e5 72bd
00000040: 4249 143e 018b 01be 070c b83d dbea 88bd
00000050: a7d6 dfbd e852 283c 356d b3bc a6a6 a2bd
00000060: 1599 ae3c f68b f83d 1c4e e6bc 9b71 54bd
00000070: f529 dcbc 2756 3a3d 408c 1bbc be39 3a3e
00000080: 015b e6bd cab1 eabd c5e1 96bd c071 d4bc
00000090: 0111 9fbd 0f46 8bbd 534f 4d3d 336c d73d
000000a0: f77b 133e 2316 7ebd 6e5c bfbd 2831 d43d
000000b0: 17ee 9fbd 8770 7c3d 5e3a a5bd f6e8 f8bd
000000c0: a31a 883d bd54 c83d 39f1 923d 095c e53d
000000d0: 6e9e cabd 34d8 9c3d f29c 7fbc 3816 01be
000000e0: 213c 37bb 0606 babc 4137 c2bc c633 2cbd
000000f0: 7bc3 02bc 255a f83b 5360 f8bc 1001 da3b
00000100: 092a 1dbc 9c0d 0c3e 42aa 13bd 9262 c73d
00000110: 5070 edbd dd45 7d3d 106c af3d f57c d43d
00000120: 9a0c ee3c 1eba e53d 3cf7 c0bc 582d 77bc
00000130: 8677 7abd 8349 853d 9840 a73d cb07 46bd
00000140: a0c6 ee3c 4a24 373d 9953 ab3c b23c a9bd
00000150: feb5 20bd 547e 313c 54ab 36bd 947c 2e3d
00000160: 3411 53bd a950 acbc 16a3 663d 5214 013d
00000170: 4c11 793c 9cfd ccbc e046 0e3e 3c28 bdbc
00000180: 01e9 a33b e9fd 443d ab4f 1bbd 6057 18bd
00000190: f4dc eebd e1f7 5ebd 3eb6 a2bd 60f2 f9bd
000001a0: e6b1 c6bd 21be 643d 7f1c 02bd 9c24 133d
000001b0: 7458 00bd d952 efbc 1519 533d 3b70 4bbd
000001c0: 60cd 25bd 7201 24bd 5901 70bd 3c57 da3c
000001d0: ed31 2dbe 1bb7 fabc 5684 8b3c 7ab4 703c
000001e0: 0fde 483e dfca 16bd f43c 35bd 6e38 573d
000001f0: ed6b 853c 16f1 5b3d 9659 4a3d 6828 823d
-0.019819902 -0.051616352 0.039633494 0.015655408 0.11964047 -0.028366327 0.033617113 -0.054109
-0.05748174 -0.011697388 0.0381618 0.0028681608 0.07126909 -0.06764075 -0.0037335583 -0.059300695
0.1448107 -0.12650682 0.08986669 -0.0668542 -0.109296136 0.010273673 -0.02190266 -0.07941942
0.02131323 0.121360704 -0.028113417 -0.051866155 -0.026875475 0.045492318 -0.009493887 0.1818609
-0.11247826 -0.11459692 -0.07367281 -0.025933146 -0.07766915 -0.06800472 0.050124478 0.10518684
0.14402758 -0.06203283 -0.093438014 0.10360938 -0.07809084 0.061630752 -0.08067773 -0.12153809
0.066457056 0.097817875 0.07174916 0.11199195 -0.09893499 0.07658425 -0.0156013835 -0.12606132
-0.0027959424 -0.02270795 -0.023707988 -0.042041562 -0.0079811765 0.0075791054 -0.030319368 0.0066529587
-0.0095925415 0.13677067 -0.036051042 0.09735598 -0.115936875 0.061834205 0.08565533 0.10375396
0.029058743 0.1121714 -0.02355539 -0.015086494 -0.061149143 0.06508162 0.08166617 -0.048347276
0.029147446 0.044712342 0.020913886 -0.0826353 -0.03923606 0.010833342 -0.044596985 0.042599276
-0.051530078 -0.021034556 0.056307875 0.03151352 0.015201878 -0.025023274 0.13894224 -0.023090474
0.0050021415 0.04809371 -0.037917774 -0.037192702 -0.11663237 -0.054435614 -0.07944916 -0.122044325
-0.097019 0.055845384 -0.031765457 0.035923585 -0.031334355 -0.02921431 0.051537592 -0.04966758
-0.040479064 -0.04004044 -0.058595035 0.026652925 -0.16913576 -0.03060489 0.017030876 0.014691466
0.19615959 -0.036814567 -0.044247583 0.05254405 0.016286815 0.053696714 0.049401842 0.06355363

res_block.linear2.weight f4 [128, 128]
00000000: c4a9 f93d d03c 443e 8367 0fbe edae 023d
00000010: 6593 67bd 6cf7 55be f44e 8fbd 4a32 213e
00000020: 3db7 873a a8a0 cabd cc64 57bd cbaa 3cbe
00000030: a7dd 783e 1f01 5f3e 02a9 91be 2ff7 4f3e
00000040: 0a61 423d ab05 bf3d 73ad 05bc 961e bdbd
00000050: cbf4 26be fc20 debd 3995 603e 7376 a8be
00000060: f4f0 a93c e26f c13d 0bd6 6fbd 3292 563e
00000070: ce39 afbb f00a 23be 9804 5b3d 85b3 34ba
00000080: b566 d63d 8bd6 a43d 3d70 d23d 980f c7bc
00000090: 073b a63d f1be a43b 6720 e73c 1177 debe
000000a0: 6643 bcbd 436b 213e 7ff4 30be f126 febe
000000b0: cbb7 b83d eda7 7a3d 15b7 303d 6c73 d83c
000000c0: 448b 7cbe d72a c73d daee 0fbe a58d 6abe
000000d0: 2233 50bd 1c6d 8ebd 5471 2f3e 0e73 0c3d
000000e0: 908c e93d 9355 dd3b e1c8 acbd e5f5 453e
000000f0: 4a04 693e 822e 09be 1699 be3d 41fc 78be
00000100: b8ca f7bd fc09 b43d 45b2 27be f077 ef3c
00000110: 8c81 303e 3af8 23be 1ed3 5bbe b876 083e
00000120: 0a6e 2dbe 5c8b 7abd 36c2 e7bc 3a73 7fbd
00000130: b49b 883e d9eb e83d 6974 6f3e 06d8 12be
00000140: d7cd 1ebe 473b d2bd d3bb 14bd 4b0a e8bc
00000150: 4c6e e63a f43e 94bd f61d 3f3d 7cc4 993d
00000160: a7c5 cdbd 8183 2abd 2b76 fdbc 85db 7abd
00000170: 466a af3d 03f4 e33e 30c8 7fbe 3cf3 43bd
00000180: e15c 8a3e 0aff ae3e c37c f73d b4bb 883b
00000190: faa8 0bbe e9b8 303d 1fe1 a83c dd8e be3c
000001a0: e05a c2bc 2cec b4bd 05c9 f23d f220 853e
000001b0: 22cd 9fbd 3bbe 69bb 214c 15bd e827 423c
000001c0: d795 0a3e d28c 85bd f5a5 e33d c93e a6bd
000001d0: c913 dcbd 301c e9bd e48f ef3d c7b5 29be
000001e0: 98c3 7bbc 0d5b 183d 42b6 113e 35fc b23c
000001f0: b7a1 903d 04ae 38bd f0f5 c93c a44e 923d
00000200: 5059 82be 962d 1dbe 2c35 593e 1d9b 35be
00000210: c7fe 27be 51b2 b13c 6a3c e8bd 6760 3a3d
00000220: 8466 84bd bac4 9fbd b9be 8fbd 367f 2d3e
00000230: 4ff5 81bd 305a 72bd 8b31 483e a2c1 693d
00000240: 8d08 853d 1c7d 0d3e f2e1 c3bc 2487 d9bd
00000250: 59c4 483d 76e9 4f3d 727d ad3c 797b 19be
00000260: ad15 1e3e d5d8 8abd f20a 543e 4d01 10bd
00000270: a4f2 83bd daa3 22be 764f aabd 320b 1f3d
00000280: 82d7 263e 3dec f93c e4da 193e 73d2 13bd
00000290: 8690 593e 557f 11be 9836 b1bc a112 5b3e
000002a0: 5be2 39bc f71d 1dbb 7d72 95bc db55 1dbd
000002b0: a260 8bbc 5a47 12be ab07 75bc 8324 acbd
000002c0: ba7e 88bb 27d1 05bf 4b14 7a3d ee80 40be
000002d0: 3878 bdbd 8311 87be c1b9 103e dc65 8d3c
000002e0: 75c6 a8bd 3969 a13c 2901 863d 88b0 263e
000002f0: a3bf 903d 9cb2 21bc 2e68 3cbe 0b94 9cbc
00000300: e45e f53c 95a2 863e c964 ca3d 6a48 103e
00000310: 283a bcbd 681a 89bd 38cd d5bb 52d7 873e
00000320: c7a9 60be 1e9b 32bc b600 723e 7988 e23c
00000330: 8854 8f3d 2fda 443e f930 983d 97dd aa3d
00000340: 8310 d73d 46d9 8bbe 2f7e 1b3d 8d98 9abd
00000350: bfab b3be 30cd 3f3e cd3a 09bd c71b 503e
00000360: fb2d c6bc 434d 33bd 4924 713e 7b48 943d
00000370: 5570 033e 71d3 05be 42bb 703e 0b7b 503e
00000380: b846 223e e234 e6be 9116 c13e d789 023e
00000390: 1658 3c3e a6ce 30be 9414 e63d b5a2 21be
000003a0: dd42 09be 7348 213d 1a24 913e 6fbc 32be
000003b0: 4a01 033d 3032 9cbd 3c86 16be e1e0 b8bc
000003c0: 4669 d4bd ceba 903e 986a 573d 6c43 1fbd
000003d0: 2376 a3bd 6fd4 36be af23 09bb 692f 6a3e
000003e0: 0ef6 fd3c 90d1 fbbd e890 bdbc 2f3c 9c3e
000003f0: 7cd5 9bba 6077 61be 99b1 95bd 9a0d 78be
0.12190583 0.19163823 -0.1400433 0.031905103 -0.05653705 -0.20895165 -0.06997481 0.1574184
0.0010354292 -0.09893924 -0.05258636 -0.18424527 0.24303304 0.21777771 -0.28449255 0.20309137
0.047455825 0.09327253 -0.008159029 -0.092343494 -0.16304319 -0.10846135 0.21931924 -0.3290287
0.020744778 0.09445168 -0.058553737 0.20954207 -0.005347467 -0.15922141 0.053471178 -0.00068932056
0.104688086 0.08048733 0.10275314 -0.024299428 0.08116727 0.005027645 0.028213693 -0.43450215
-0.09192543 0.15763573 -0.17280768 -0.49639085 0.09019431 0.061195303 0.04314335 0.026422225
-0.246625 0.09724968 -0.14055958 -0.22905596 -0.050830014 -0.06954405 0.17133075 0.034289412
0.11403763 0.006754586 -0.08436752 0.19332083 0.22755542 -0.13396648 0.093065426 -0.24314977
-0.120992124 0.08790967 -0.16376598 0.029231995 0.17236918 -0.1601266 -0.21467254 0.13326538
-0.16936508 -0.06116806 -0.02829085 -0.062365748 0.26681292 0.11373109 0.2338425 -0.14340219
-0.15508209 -0.102652125 -0.036311936 -0.02832522 0.0017580478 -0.0723857 0.046659432 0.075081795
-0.10047465 -0.04162932 -0.030940136 -0.061244506 0.08565192 0.44522104 -0.24978709 -0.04783939
0.27023986 0.34178954 0.12084343 0.0041727666 -0.13638678 0.043145094 0.020615159 0.023261482
-0.023724973 -0.08834109 0.11854748 0.26001698 -0.07802798 -0.0035666365 -0.036449555 0.011850335
0.13533722 -0.06521 0.11115638 -0.08117444 -0.10745961 -0.113823295 0.11697367 -0.16573249
-0.015366457 0.037196208 0.14229682 0.021848777 0.07062095 -0.04508783 0.024653405 0.07143906
-0.25458765 -0.15349421 0.2121169 -0.17734952 -0.16405784 0.021691473 -0.11339648 0.045502093
-0.06464866 -0.078011945 -0.07018799 0.16943058 -0.06345617 -0.05916804 0.19550149 0.05706943
0.064957716 0.13817257 -0.02391145 -0.10621479 0.049015377 0.050759755 0.021177981 -0.14988507
0.15437956 -0.06779639 0.207073 -0.03515749 -0.064427644 -0.15882817 -0.08315937 0.038829036
0.16293147 0.030508155 0.15024906 -0.036089372 0.21246538 -0.1420873 -0.021632478 0.21393825
-0.011345471 -0.002397416 -0.018243069 -0.038411956 -0.017013852 -0.14285031 -0.0149554415 -0.084054016
-0.0041654976 -0.52272266 0.06105451 -0.18799183 -0.092514455 -0.26380548 0.1413336 0.017260484
-0.08240978 0.019703494 0.0654319 0.16278279 0.07067802 -0.009869244 -0.18399116 -0.019113561
0.029952474 0.26295915 0.098825045 0.14090124 -0.0919078 -0.0669449 -0.006524708 0.26531464
-0.21939765 -0.010901241 0.23633084 0.027652966 0.06998545 0.19223855 0.07431216 0.08343046
0.10501196 -0.27314204 0.037962135 -0.07548628 -0.3509197 0.18730617 -0.033503342 0.20323096
-0.024191847 -0.043774854 0.23548998 0.07240387 0.1283582 -0.1306894 0.23508933 0.20359437
0.1584729 -0.4496222 0.3771253 0.12747894 0.18392977 -0.1726633 0.11234394 -0.15784724
-0.13404413 0.039375734 0.28347856 -0.17454694 0.03198365 -0.0762676 -0.14699644 -0.022568168
-0.10371642 0.2826752 0.05259189 -0.038882658 -0.07981517 -0.17854474 -0.002092581 0.22869648
0.031001117 -0.1229583 -0.023140386 0.30514666 -0.0011889185 -0.22018194 -0.07309265 -0.24223939

res_block.linear2.bias f4 [128]
00000000: 499c ccbd 4578 af3d a791 183c d434 aabc
00000010: ce78 0fbd 5143 223d a854 403c d1c0 c0bb
00000020: 862f c9bd 548c cabd 1d7a da3d 4b5c b03b
00000030: 76b3 ccbd 1e31 62bd 6ea7 81bd 83ab f0bd
00000040: 4cc7 623d b366 693d f4fa bfbd ad61 073e
00000050: cb0e 0c3d f844 cdbd 7787 24bc 5825 11bd
00000060: 17d9 093c 2092 a83d 7680 c53c 634c 5bbd
00000070: 41a1 64bd 594a 60bd 0e8f c93d 4ed8 0cbd
00000080: 7749 133e 41fb aa3c 6853 09be d9af 27bc
00000090: 1f17 49bd 43b0 62bd a19f ccbd 5f1c c43c
000000a0: f422 413d ff05 803c b2e5 a7bc 076f 8bbc
000000b0: 7f4f ecbd 845c 993d 3815 193e d25e c9bc
000000c0: cd13 283c 4147 86bd a49a 1d3d 6447 0abd
000000d0: 17b7 00bc e1fb f83c 34e1 223d 90ba 8a3d
000000e0: 9ac0 51bd 9c7f 253d eba7 0a3e 757f e53d
000000f0: a101 d43b 5649 833d e390 9bbd 98e7 25bc
00000100: 96c0 bfbc d15c c13d 2604 683c 3f91 463d
00000110: b675 92bd eecb 91bd 817f 13bc 12a2 c33d
00000120: ea40 8fbc 8a53 0b3c 0fd2 24bd 590e 3d3d
00000130: 0a95 90bc c402 92bd d524 63bb 91cc 30bb
00000140: 8cb0 4e3d 5ca5 15bd d812 8abd f716 fcbd
00000150: 2cb9 5d3c 6291 f43c 541a bbbd 7071 c93d
00000160: f1b8 c4bc 6d79 94bd a6a9 dfbd c501 17bd
00000170: 2d95 283c 8cc4 a4bd 2c36 683d 390f 823d
00000180: ed50 b7bc ca54 a53d 0434 cfbc 192b 0e3d
00000190: 0deb 82bc 114d 5a3b 59e4 38bd 27fc 88bd
000001a0: 8dba 1abd 87aa af3c 334d d4bc b45a cfbd
000001b0: 5db4 e03d a6cf debc 7074 953d efa8 a7bd
000001c0: bca3 a9bd ca88 a73d 3db3 88bd 6bae 963d
000001d0: 1ce0 3c3e be17 5d3a 4a5f 42bd 36b7 6a3d
000001e0: a009 dfbd bc2d 8fbd 756b 9f3b f5c4 823c
000001f0: de91 963d f72f a3bc 9599 e8bd 0a7d 663d
-0.099907465 0.085678615 0.00931207 -0.020777144 -0.035027318 0.03961498 0.011738934 -0.0058823605
-0.098235175 -0.09890047 0.106678225 0.005382096 -0.09995167 -0.055222623 -0.06330763 -0.11751463
0.055365846 0.056982707 -0.093740374 0.13220854 0.034193795 -0.1002292 -0.010042063 -0.035436004
0.008413575 0.08230996 0.024109107 -0.053539645 -0.055817846 -0.054758403 0.09841739 -0.03438597
0.14383493 0.02087176 -0.13410723 -0.010234796 -0.049094316 -0.055343878 -0.09991384 0.02393931
0.047152475 0.01562786 -0.02049527 -0.017020715 -0.115386 0.07488349 0.149495 -0.024581347
0.010258627 -0.06556559 0.038477555 -0.03375949 -0.007856152 0.030393543 0.03976555 0.06773865
-0.05120907 0.0404049 0.13540618 0.11205951 0.0064699207 0.06410472 -0.07595994 -0.010126017
-0.023407262 0.094415314 0.014161145 0.04847836 -0.07151358 -0.071189746 -0.009002567 0.09552397
-0.017487008 0.008503804 -0.04023939 0.04615626 -0.017649192 -0.07129434 -0.0034659405 -0.00269774
0.050461337 -0.036534652 -0.067418754 -0.12309068 0.013532918 0.02985448 -0.09135881 0.098360896
-0.024013968 -0.07249723 -0.1092103 -0.036866922 0.0102894725 -0.08045301 0.056692287 0.0635056
-0.022377456 0.08072813 -0.025293358 0.03470907 -0.015981222 0.0033310095 -0.045139644 -0.06688719
-0.037775565 0.021443618 -0.025915718 -0.10124722 0.109719016 -0.027198624 0.07297599 -0.081865184
-0.08283183 0.08180387 -0.06674812 0.07357486 0.18444866 0.0008434019 -0.047454156 0.05730363
-0.10890508 -0.06991145 0.004865105 0.015963057 0.07352041 -0.019920332 -0.113574184 0.05627159

fc2.weight f4 [256, 128]
00000000: eee7 65bd 1d2b 9bbd ef8f 363e fc25 a4bd
00000010: a1e1 87bd 5244 353e c2b8 32be 90b1 5f3d
00000020: dbcd 30bd b35f 123e 2ea4 603d 5c94 0a3e
00000030: 8016 f5bc 51fa ebbb 88cc 3dbe 9493 933c
00000040: 79de 023e 32e1 2ebc 4d24 0ebe b52d 28bd
00000050: b0bb 02bd 1784 963c 237f 103c aa2e c9bd
00000060: 6c18 4b3d e0b1 dfbd 8998 053d 2246 5d3e
00000070: c5ae 5d3d fcbf bbbd 5ec3 5b3e 6800 853e
00000080: 06a8 a93d 653a f7bd 3f36 2a3e 8045 68be
00000090: 4358 e93d 747e a13d 40bc e0bd 41b1 7a3e
000000a0: 0d2a a2be 2563 76bd 2d9b 353e 5b7b 94bd
000000b0: abdd 413d 0656 58be fd2a cc3e 3376 5c3d
000000c0: 6d01 1a3e 6f5a 363d b3ed 38bd 8bf7 45be
000000d0: 03eb 113d 0627 0a3e f9fa febd dfcb b43d
000000e0: 8a0a 7d3d ec23 a0bd 33f8 473e 2d29 6bbe
000000f0: ecf5 243c b4a8 56bd 1a26 02bd a159 283c
00000100: debf 653e 1d92 13be b038 333e f67e d83c
00000110: ee77 023e 0977 803d 620f 093d e54c 63be
00000120: 75da 9d3e 15a6 29be ff67 adbd db8e b43d
00000130: ce54 8ebd 5404 ac3d a495 8b3d b14d 6dbd
00000140: 03a4 cfbe 681d c63d a807 42bd 4dc7 1e3e
00000150: c93f bebd c763 853d 6324 ce3d 8060 2abe
00000160: 9615 1e3d 2a4f c93c f506 8b3d 7a37 c1bc
00000170: 0e5e 463e d30c 55bd 4e6f 4bbe 5481 663d
00000180: a90c 2abe 831c abbe 3ea5 d9bd b67b f3bd
00000190: fe7d 85bc b8ee 53be f34a 7b3e 44e4 583e
000001a0: e77c ffbc cad0 a7bd fc94 c53d 66a9 eb3d
000001b0: 6b2a 463e 81b4 a9bd f8c3 5bbe 9b78 b1bc
000001c0: 3dfd d83e 749f b03c a343 963d 3029 1c3c
000001d0: 5333 f4bd e41a 9e3d 590c 6dbd 258b 0a3e
000001e0: 4c04 a9bd 8fd6 0ebe 5974 c33c bb2e 46bd
000001f0: d6e7 84be b1cf 683d 4b7d 8dbe 747d f0bd
00000200: b553 dd3e fb44 e7bc 9498 663d b5ed d0bd
00000210: 5c9a 3a3d 81a6 91bd 08ff c33d 9796 933e
00000220: 0e05 a5be b423 d4bd 4e39 41bc 4e24 223d
00000230: 4128 a5bd e5f7 223d 87c7 0c3e 08f5 023e
00000240: 067d de3c aaa7 873d c92a 06be 14d6 16be
00000250: fd43 6abe 5dff a53b 9396 7b3d 7449 863e
00000260: 383a a63b a6ec 8cbd 0e68 6e3d 01e0 003c
00000270: a625 e43d 8331 a33e b399 7c3e 5154 02bd
00000280: 50ba 20bd 4d6f 53be dcf6 f4bd 1659 13be
00000290: 2c2d d0bd b122 9dbe 4bb1 04be 4cb3 c73a
000002a0: 1730 6e3e d9b9 233e 44d2 5abc 3e33 833d
000002b0: ab6e a33d 03cd 4abd 158c 97bd 5e6f 4b3e
000002c0: 0320 bebd 816b cabc 2664 e33d ef2b c7bd
000002d0: dc50 313d 39c3 933e c30c df3d b019 65bd
000002e0: 61a8 5e3b 1435 49bc 652d 093d 58b1 473e
000002f0: 20a6 7cbd e567 f33d 1a3d 24bd 9706 e9bc
00000300: 92a4 3b3e b939 033e ee12 79bd e90f 10be
00000310: 68e9 8fbd c693 bbbe 6c48 4d3d 27d9 883d
00000320: 817d 103c 3f42 3ebe 6558 9abe efaa 35be
00000330: 793d 0b3e 0760 e6bd 2ebf f03c 8f23 90bd
00000340: cd93 c8bc 8210 093e 97f3 dc3c 56f5 b3bd
00000350: d1a7 8dbe 5582 9cbd 41cf 4f3e 19a6 933c
00000360: 71be 0cbe 4691 603d 9100 04bd 4b94 31bd
00000370: 732e 1ebe 64d8 56bd f86f 413d 2f89 143d
00000380: 9101 23bd 49cb fabd 1bd7 a43d 4bd0 843d
00000390: 9eb7 423c 91c9 95be 0315 f0bc ab72 c23d
000003a0: 096e 14bc 1ff5 9f3e ac5b 123d b12c 0cbe
000003b0: dfe5 9e3e ee56 033d a301 d23c e6c4 d9bc
000003c0: af48 de3d 661e 3abe 70a3 01bd 26fd 11be
000003d0: 573c d5bd f625 dabb 31d1 e0bd 9555 763c
000003e0: 1cdd debd f4e5 39be 60e8 573d dbd5 e2bc
000003f0: b0c4 603e 4d13 803e 99c2 26be 7faf 963d
-0.05612939 -0.075765826 0.17828344 -0.080150574 -0.06634832 0.17701843 -0.17453292 0.054612696
-0.04316507 0.14294319 0.054844074 0.13533157 -0.029917955 -0.007201471 -0.18535054 0.018014707
0.12780179 -0.010673808 -0.13881035 -0.041059215 -0.031917274 0.018373532 0.008819374 -0.098233536
0.049583837 -0.10922599 0.032616172 0.21608785 0.05412175 -0.091674775 0.21461245 0.25976872
0.08284001 -0.12071685 0.16622256 -0.22682762 0.11393788 0.07885447 -0.10973406 0.2448168
-0.31672707 -0.060153145 0.17734976 -0.07250091 0.04733054 -0.21126565 0.39876547 0.05382366
0.15039606 0.044519838 -0.045148563 -0.19332711 0.035624515 0.13491449 -0.12450213 0.08827948
0.06177763 -0.078193516 0.19528274 -0.22964926 0.010068398 -0.05240698 -0.031774618 0.010275275
0.22436473 -0.14411207 0.17502093 0.026427727 0.12741062 0.06272704 0.033461936 -0.22197302
0.30830732 -0.16567262 -0.08467101 0.0881631 -0.06949769 0.08399263 0.06815651 -0.05793542
-0.4055482 0.096735775 -0.047370583 0.15505715 -0.0928951 0.06513172 0.10065534 -0.16638374
0.038594805 0.024573881 0.06788436 -0.023586024 0.19371817 -0.052014183 -0.19866678 0.05627568
-0.16606392 -0.3342019 -0.106272206 -0.1188883 -0.01629543 -0.20696533 0.2454031 0.21180826
-0.031187488 -0.0819412 0.09647557 0.115069196 0.19352119 -0.082863815 -0.21461475 -0.021663954
0.42380705 0.021560408 0.073371194 0.009531304 -0.11923852 0.07719973 -0.057873104 0.13529642
-0.08252773 -0.13949035 0.02385919 -0.04838441 -0.25958127 0.056838695 -0.27634653 -0.11742678
0.43227926 -0.028231135 0.056297854 -0.10201589 0.045557365 -0.07111836 0.09570128 0.28825828
-0.3223042 -0.10358372 -0.011793448 0.039585404 -0.080643184 0.039787192 0.13747989 0.12788785
0.027159225 0.06623776 -0.13102259 -0.14730102 -0.22877498 0.005065842 0.061422896 0.26227915
0.005072858 -0.068810746 0.058204703 0.007865907 0.11139993 0.31873712 0.24668007 -0.03181869
-0.03924018 -0.20647927 -0.11961147 -0.14389452 -0.10164866 -0.3069053 -0.12958257 0.001523593
0.23260532 0.15988864 -0.013355795 0.06406258 0.079800926 -0.04951192 -0.073997654 0.19866702
-0.092834495 -0.024709465 0.11103086 -0.097251765 0.043290004 0.2885988 0.10891106 -0.0559327
0.0033974873 -0.012280721 0.033490557 0.19501245 -0.061681867 0.11885051 -0.040097333 -0.028445525
0.18324497 0.12814988 -0.06080907 -0.14068569 -0.070269406 -0.3663618 0.050117895 0.066820435
0.008818985 -0.18579958 -0.30145565 -0.17740987 0.13597669 -0.112487845 0.029388037 -0.07038032
-0.02448454 0.13385203 0.026971621 -0.087870285 -0.27667096 -0.07642046 0.20293905 0.018023537
-0.13744523 0.054826044 -0.032227103 -0.043354314 -0.15447406 -0.05245246 0.047225922 0.03626364
-0.039796416 -0.12245805 0.080488406 0.06485041 0.011884598 -0.29255345 -0.029306894 0.094945274
-0.009059438 0.312417 0.035731956 -0.13688923 0.31034753 0.032065324 0.025635546 -0.026583146
0.10853707 -0.18175659 -0.031650007 -0.14256725 -0.104118995 -0.0066573573 -0.109774 0.015035053
-0.10882017 -0.18154126 0.052711844 -0.027689865 0.2195003 0.25014725 -0.1628517 0.07357692

fc2.bias f4 [256]
00000000: e51e b6bd 7adc 15bd 9757 8ebd 307e f4bd
00000010: 70e2 c6bd affe febb 105a b9bd 954a 933d
00000020: 0d7f abbd 879a 61bd fda2 e4bc 3cd3 afbd
00000030: ecbf 6d3d 429a 383d f71b 6f3d 2b3b d63a
00000040: 6320 463d 15db 4cbd 011d cabd 437a 993d
00000050: 5e93 513d 917a 71bc 7cb7 50bd f9f9 77bd
00000060: 01be 9e3c be8d 523d 99b6 e73c f51b 9e3d
00000070: 822f fcbd 4036 93bd c2f2 d0bc 826e c1bc
00000080: b98d c3bb d2f0 05bd f6ca d23d f871 43bc
00000090: 4510 31bd 281f 13bd 60a6 acbd 8027 293d
000000a0: 1e24 ca3d 51d1 29bd e3ae 053e 7962 1d3d
000000b0: 6e4a 213e c2af 55bc 026f 883d 8c44 9ebd
000000c0: 397e 9d3d 5442 803d 8f70 34b9 d197 d6bc
000000d0: aeac b5bd 0639 a43d b52e 833d e83f faba
000000e0: 2c72 8bbd 445b f73c cce8 27bd ca21 f63c
000000f0: 82cb 343d 5a60 12ba 0065 3cbd 1150 a6bd
00000100: 267c 143c e53f cd3c fd7b 853d 12d4 cd3d
00000110: 6778 f5bd 5990 a9bc 8f66 89bd b408 d4bd
00000120: 06cc 81bd 769e 24bd c67a 413d 1f18 f83d
00000130: 6e8a 713d af61 5bbd 7d9b 9abd a8a3 f63d
00000140: f455 9dbd defb 443d a1a9 06be cc6a 1bbd
00000150: e7f9 b6bd 4a47 a0bc 17f0 9cbd 745c 2e3b
00000160: 036d e5bd dfc8 9a3b 2ad6 dcbc bef3 86bd
00000170: 27db b23d b67c 3bbc 274a f6bd 137e d53d
00000180: 3bc9 b73d f9b2 37bd 6e2d 1abe 5268 9fbd
00000190: d5ae b63b 436c 25bd e301 b2bc f039 00be
000001a0: 4d59 60bd a28d 3a3d bed3 97bd f5ba 50bb
000001b0: ce25 8a3d 5880 123d 727a 0d3d 9124 10bc
000001c0: d3bb c13c d72c c4bd 2bd9 f7bd 4a4f b4bd
000001d0: 7158 aebc 95af 04bd b4e9 983d 4313 3cbc
000001e0: fdac 63bd b5f3 ce3c 24ee 8a3c bfe1 33bd
000001f0: 0d75 283d 5184 3cbd 0d1b e93c 70ec 08bd
00000200: c93d fc3c c125 e6bd 54a1 35bd 2730 e33d
00000210: 52d8 bfbc cd31 1bbd 427c 39bd f07a 9dbc
00000220: 2d88 b93c 1540 2b3d fdf9 08be a581 dabc
00000230: 643d 04bd 09aa 23bd 40a7 733c 95a1 eb3a
00000240: 3f3a c93c cbb0 8a3b 9daf d2bd f9bc 02bd
00000250: 6c9d 47bc 3e88 31b9 839b 3bbd a065 2bbd
00000260: 34f1 f33c 8c26 97bc 57d3 b8bd 922a 293d
00000270: 2bec c03a 12a2 f83c 100b 00bb 9073 3b3d
00000280: 9397 b5bd 79ff 2f3d 4fb4 babd 7b69 d9bd
00000290: 5db4 593d 0d70 96bd f1b2 9abc 13bf c43c
000002a0: f871 a8bc 7d4c b4bd d6d9 213d 973c 1dbd
000002b0: 49f4 b93d eda6 24bd 370d 77bd 1f08 67bd
000002c0: 0fa6 acbd 94bf eabc c870 523d 23d5 28be
000002d0: 9fbd a6bd 075d fd3d 0c16 90bc 880c 273b
000002e0: 5d25 983d 7994 09bd 898c 33bc 4a82 94bc
000002f0: 0052 573b 6a08 cdbc a3fb aabc 02cc cb3c
00000300: c7f6 f8bb 3e3f 06bd 1f60 7fbc 943f 923d
00000310: 68ca 16bd 8f7b 31bd cfdc 5b3d d8d3 8bbd
00000320: 8013 413c 2d0a 58bd 8a6b f23c ac3f 3c3c
00000330: c775 e23d 3722 56bb 36c9 c4bd 53a4 953d
00000340: 610a c53d 2eae 43bc 692c c7bd 9dfe fdbb
00000350: 31d8 96bc 9077 e23c 35b9 22be b100 a5bd
00000360: 5fbf bdbb 7367 bdbc 5c70 89bb 6bbc 753d
00000370: bd40 953c 1882 5f3c 9b23 fe3b 0193 83bc
00000380: b856 a7bc c533 2b3d e04b c9bb 1a92 7d3d
00000390: 4c9d b8bd c053 063e eb62 11bc 7607 933c
000003a0: 08e6 293c 7f2e 7dbc c04e 9ebd 4f58 96bd
000003b0: fb80 a33d d654 07bd 7a6a 6c3d 7aad bd3c
000003c0: de26 8bbd 6d8a c8bc 3ea8 73bd 85e8 7cbd
000003d0: 8d34 553d b815 19bd 37ca c3bb 2a66 8a3a
000003e0: fde8 bfba e3d9 86bd 964f 053e 884d 26bd
000003f0: f8ee 5e3d ad40 bbbc 94aa de3d 6b80 a93c
-0.088926114 -0.036587216 -0.069503 -0.11938131 -0.09711158 -0.0077818255 -0.09050381 0.0719196
-0.083738424 -0.05507901 -0.02790975 -0.08585212 0.05804436 0.045068987 0.05837628 0.0016344538
0.04837073 -0.05001362 -0.09868813 0.07494023 0.05116593 -0.014738695 -0.050956234 -0.060541127
0.01937771 0.051404707 0.028285312 0.07720176 -0.12313749 -0.07188082 -0.025506381 -0.023612265
-0.0059678224 -0.032700367 0.10292618 -0.011929028 -0.043228406 -0.035918385 -0.08430171 0.041297436
0.0987017 -0.041459385 0.13054995 0.03842399 0.15751049 -0.013042392 0.06661798 -0.07727918
0.07690091 0.06262651 -0.00017208069 -0.026195439 -0.08870827 0.08018689 0.06405393 -0.0019092532
-0.06808886 0.030194886 -0.040993497 0.030045409 0.044139393 -0.00055838155 -0.04599476 -0.0812074
0.009062802 0.025054881 0.065177895 0.10050215 -0.119858555 -0.020698713 -0.067090146 -0.103532225
-0.063377425 -0.040190183 0.047236226 0.12113976 0.058969907 -0.053559955 -0.07549188 0.12042934
-0.0768241 0.04809176 -0.13150646 -0.037943646 -0.08934384 -0.019565243 -0.07662981 0.00266054
-0.11202433 0.0047236527 -0.02695759 -0.06589459 0.08733206 -0.011443308 -0.12025862 0.104244374
0.089739285 -0.044848416 -0.15056393 -0.077835694 0.005575041 -0.04038645 -0.021729415 -0.12522101
-0.054772664 0.045545228 -0.074134335 -0.0031849716 0.06745492 0.03576693 0.0345406 -0.008797781
0.023649132 -0.09578865 -0.121019684 -0.08804186 -0.021282407 -0.03239401 0.0746645 -0.011479202
-0.055584896 0.025262693 0.016959257 -0.04391646 0.041127253 -0.046024624 0.028455282 -0.03342861
0.03079118 -0.1123767 -0.044343308 0.11093169 -0.02341858 -0.03788929 -0.045284517 -0.01922366
0.022647941 0.04180916 -0.13376613 -0.026673147 -0.03228511 -0.03995708 0.0148714185 0.0017977232
0.024563907 0.004232501 -0.10287402 -0.0319185 -0.012183528 -0.0001693079 -0.045802604 -0.041844964
0.0297781 -0.018450998 -0.09024685 0.041300364 0.0014718821 0.030350719 -0.0019537844 0.045764506
-0.08866801 0.042968247 -0.091164224 -0.10615822 0.053150523 -0.07345591 -0.018884154 0.024016893
-0.020562157 -0.088036515 0.039514385 -0.03838786 0.09079797 -0.040198255 -0.060315337 -0.05640423
-0.08430111 -0.028655805 0.051377088 -0.16487555 -0.08141636 0.12371259 -0.017588638 0.0025489647
0.074290015 -0.03358886 -0.010958799 -0.018128533 0.0032855272 -0.025028426 -0.020871943 0.024877552
-0.0075977775 -0.032775156 -0.015586882 0.07141033 -0.036814123 -0.043330725 0.053677376 -0.06827515
0.011784434 -0.05274408 0.029592294 0.01148979 0.110576205 -0.0032674202 -0.096086904 0.07306733
0.0962112 -0.011943383 -0.097252674 -0.0077512995 -0.018413635 0.027644902 -0.15890963 -0.080567725
-0.0057906355 -0.023120617 -0.0041943025 0.059994143 0.018219346 0.013641857 0.0077557093 -0.016061308
-0.020427093 0.04179742 -0.006143078 0.06190691 -0.09014377 0.13117886 -0.008873682 0.017947894
0.010369785 -0.01545298 -0.07729864 -0.07341062 0.079835854 -0.03303989 0.05771873 0.02315401
-0.06794523 -0.024480069 -0.05948662 -0.061745185 0.05205207 -0.03737423 -0.0059750336 0.0010559012
-0.001464158 -0.06584527 0.13018641 -0.040601283 0.054427117 -0.022857988 0.10872379 0.020691117

fc3.weight f4 [13, 256]
00000000: f504 9e3c 0f56 57bd ed99 fe3c e052 ab3d
00000010: 8e8a 85be da12 71bb f8bc 35bd dbaf 083d
00000020: 21a8 643d f66d f2bc 5eb8 c33d 0873 a5bd
00000030: d271 dc3e 9e8e e53c eefb 64bd cc8d 81bd
00000040: c109 f0bd 5a47 0c3d fb4f ff3c 69b3 f9bd
00000050: 612c 04bd b536 083d 0612 bcbd 94b7 913d
00000060: 6e60 283e f40a e83d f850 223e 22cd 87bd
00000070: a6cc 8c3c e87b 2bbd 530a 4d3c 52c6 f63d
00000080: 58b1 a1bd 3c5a ccbe 5eda 9f3a 3c84 e03d
00000090: bfb7 813c d146 df3c ce1c a8bd d2e7 eb3d
000000a0: 9334 023e 26d2 acbc 5bcd a33d cffb 3d3d
000000b0: f7de 9cbe bd39 a03d cae0 863d 9086 4d3d
000000c0: 1692 b7bd 9252 a53d 1800 37bd 249d 673d
000000d0: 188a 823e 096f f33c 28ef b0bd 5861 15bc
000000e0: 991a 70bc a0b9 3dbc 1d40 5dbd 94ca a8bd
000000f0: 9acc 0a3e 104a e3bc 91ba f1bd eb95 e03c
00000100: 45d2 843d 1572 513e 1a43 123e 7626 c93d
00000110: def0 a1be 9b09 a3be c3b8 393e 57ea 9fbd
00000120: b74f 853d 14a5 43bd a16d da3d 2e71 3eba
00000130: 632c 953d 0fef 0abb 0ba2 e4bd 9cc8 5cbe
00000140: 8a15 10be 659f 773d 9b62 403d 97dc 4d3e
00000150: 98c6 f4bc 5cbd 213e f399 39bd eb11 2c3e
00000160: e84d 713c bd15 79bd 542a 6bbd 2035 e03d
00000170: 2ce0 44bd ed27 333e e7dc 083d bfb1 eabd
00000180: dd0d 953c 8380 00be 5943 f03d 7bb3 11bd
00000190: 7030 043e 3e63 b5bd 9b5a b03d e1c0 05be
000001a0: 7c22 4f3d 34cd 023d 4f33 88bc 1369 0ebe
000001b0: 3442 b13d 7112 303e 2d5e 673b 9629 263e
000001c0: 75f4 8f3d 758d af3d 6bed 563e fe13 cd3d
000001d0: db42 1cbe de55 973d a421 273e e08f 6e3d
000001e0: 471f c33d 3e09 6a3d 2321 6ebd 2398 a6bc
000001f0: aba0 1dbd 0579 66bc 8890 07bd c9cb 5ebe
00000200: 3fc0 9bbe b63f fabd ad54 ae3c ceae a7be
00000210: aa44 ae3d 8a12 9b3c 0a82 6dbe ded5 383d
00000220: bf17 fcbd b240 a5bd 3f30 2fbe c4a7 e33c
00000230: fcfd 933c 6172 5b3d cc6e 7cbe 6a4b fd3b
00000240: cd9e 5a3e a6cd 3cbd 9f3b 373e 1fce 8e3d
00000250: f51d d3bd 9222 183e 1288 9c3d 04e1 873c
00000260: 8c45 17bd 1c84 c6bd d75d 88be 7287 cf3d
00000270: 9e51 143d 07a7 ccbd 693c d5bd 264e 313e
00000280: 08be b6bd b174 84be 241e 3e3e 5260 b13a
00000290: 486c 93bd 3056 123c 2dbc 95bc d803 f8bd
000002a0: d1b1 6abe e984 103e a5af b03c fd6f afbd
000002b0: 168b e53d 1a27 b7be 370c b6bd 613b ef3b
000002c0: 07a7 c53d 04dc 2f3c 4bae f23d 7f5f a1bd
000002d0: d423 f03d de3a 1c3f 0724 fd3c ceea 7d3d
000002e0: e7d3 e93c ee0c d73d 3d76 f6bc 6583 123e
000002f0: a632 05be 6de2 d93c cd5e 29be a4eb 473d
00000300: e608 6c3d 6db7 57be 937b a33d 9b43 94bd
00000310: 8f64 0f3e 7962 983d adcc a33d ff27 e1bc
00000320: 0f23 2dbd 6aca 4abe 2697 d43d bdbb 88bc
00000330: 675e 453d 9ce6 2fbe ac7a ad3d aea1 dfbc
00000340: b67a 46bd b131 5c3d d805 0dbc aacc 903c
00000350: 09c8 2c3e c60c 59be 286e 6cbd f376 cabe
00000360: ef81 383e 9065 903d dc8b b03d de5d 5ebc
00000370: e327 62bc 36f5 7e3c 4813 293d 51f5 82bd
00000380: 0ad7 a13c fdf4 e5bc 807a 8fbc 9e4c e73d
00000390: 0e42 03ba 78f8 343e 3bf4 94bd 2eef 743d
000003a0: 8c7d 86bd b7b8 ae3b 26ec 363d 44e4 ff3b
000003b0: 3c17 0fbd 5f84 49be 5f5a 04be 0247 56be
000003c0: efcc fcbd 54b2 abbc fda0 993d 83f3 10bc
000003d0: 91d7 453d 5b8d 263e db61 abbb bd98 733d
000003e0: dfd8 103e cadc 263d 93e0 75bd 1620 033e
000003f0: 92fa b13d 61d0 3d3e ab1d 64bd f93a df3d
0.019289473 -0.052572306 0.031079257 0.083654165 -0.2608227 -0.0036784918 -0.044369668 0.033370834
0.055824403 -0.02959345 0.095566496 -0.08078581 0.43055588 0.028022107 -0.05590432 -0.06325874
-0.117206104 0.034247734 0.031166067 -0.12192423 -0.032268886 0.033255298 -0.09183125 0.07115093
0.16443035 0.11330214 0.158512 -0.06630923 0.017187428 -0.041866213 0.0125146685 0.12049545
-0.07895154 -0.39912593 0.0012195816 0.10962722 0.015834687 0.027255448 -0.08208619 0.115188256
0.12715368 -0.0210963 0.07998153 0.04638272 -0.3063886 0.07823513 0.06585844 0.050177157
-0.089634106 0.0807239 -0.044677824 0.056546345 0.25495982 0.029716032 -0.086393654 -0.009117447
-0.014654779 -0.011579901 -0.05401622 -0.08241764 0.13554612 -0.027745277 -0.11803163 0.027415236
0.06485418 0.20453675 0.1428341 0.09821789 -0.3162908 -0.31843266 0.18136887 -0.07808369
0.06509345 -0.047764853 0.10665441 -0.000726479 0.07283857 -0.002119962 -0.1116372 -0.21560901
-0.14070717 0.060454745 0.046969038 0.2010368 -0.029879853 0.15794891 -0.045312833 0.1680371
0.014728047 -0.060811747 -0.057413414 0.10947633 -0.04806535 0.17495699 0.033413794 -0.114596836
0.018195087 -0.12549023 0.117315955 -0.035571557 0.12909102 -0.088568196 0.086110316 -0.13061859
0.050569996 0.03193398 -0.016626028 -0.1390727 0.08655205 0.17194535 0.0035303936 0.16226801
0.07029048 0.08571903 0.20989005 0.10013579 -0.15259878 0.07389425 0.16321427 0.05824268
0.0952745 0.05713772 -0.05813707 -0.020336216 -0.038483303 -0.014066939 -0.03309682 -0.21757425
-0.3042011 -0.12219183 0.021280611 -0.32750553 0.085091904 0.018929739 -0.23194137 0.045125835
-0.12309217 -0.0806898 -0.17108248 0.027789958 0.018065445 0.053575877 -0.2465164 0.0077299373
0.2134964 -0.04609456 0.17893837 0.06972908 -0.10308448 0.14856938 0.07643141 0.016586788
-0.03693156 -0.096931666 -0.26634094 0.10133256 0.03621065 -0.099927954 -0.10411913 0.17314968
-0.08922964 -0.25870278 0.18566185 0.0013532734 -0.071983874 0.0089316815 -0.018278206 -0.12110108
-0.22919394 0.14113201 0.021568129 -0.08566282 0.11208169 -0.3577202 -0.088890485 0.0073007797
0.096509986 0.010733608 0.1184965 -0.078795426 0.11725584 0.61027324 0.030900968 0.061991505
0.028543426 0.10500513 -0.030085677 0.14307936 -0.13007602 0.026597226 -0.1654007 0.04880871
0.057625674 -0.21066065 0.07982554 -0.07239457 0.14003204 0.07440657 0.07998023 -0.027484892
-0.042269763 -0.19803777 0.10380392 -0.016691083 0.048185732 -0.17177814 0.084706634 -0.027298775
-0.04845687 0.053758327 -0.00860735 0.017675716 0.16873182 -0.21196279 -0.05772224 -0.39543876
0.18018316 0.070506215 0.08620426 -0.013572184 -0.013803455 0.0155613925 0.041278154 -0.06394447
0.019755859 -0.028070921 -0.017514467 0.112939104 -0.00050070963 0.17672908 -0.07273146 0.059798412
-0.06566915 0.0053320783 0.044658802 0.007809194 -0.034934267 -0.19679402 -0.12925099 -0.20925525
-0.123437755 -0.020959057 0.07501409 -0.00884712 0.048301283 0.1626486 -0.005230171 0.059471834
0.1414523 0.040737905 -0.060028624 0.12805209 0.086903706 0.18536521 -0.055692356 0.1089992

fc3.bias f4 [13]
00000000: be5a 223d 73e9 a8bd 3c7a 0bbd b478 53bd
00000010: 62a4 c23b 113c b6bb bc74 e63c ec52 b23c
00000020: e3cd ffbb 320b 143d c9dd 063d 1cc1 b6bc
00000030: c0da a33d
0.03963732 -0.08247652 -0.03405212 -0.051628783 0.005940006 -0.0055613597 0.028131835 0.021768056
-0.007806526 0.03614349 0.032926355 -0.022308879 0.080007076
